model/data_90_bert_type.model (torch, 93522 bytes, 76 tensors)

token_embedding.weight f4 [146, 16]
0	0x3fb23572	1.392256
1	0x3fd3da73	1.655104
2	0xbfdb22cb	-1.7119993
3	0xbf13dca0	-0.5775852
4	0xbd0f6822	-0.03501142
5	0x3fa07976	1.2537067
6	0x3eb6d85c	0.35711944
7	0x3fdc1d55	1.7196451
8	0xbd80b99d	-0.06285403
9	0x3d11d430	0.03560275
10	0x3fa7cadc	1.3108783
11	0xbf04f68b	-0.51938695
12	0x3e98d85a	0.29852563
13	0x3fb5e19d	1.4209477
14	0x3d9b1a22	0.07573344
15	0x3f1eef1a	0.6208359
16	0xbf90e01d	-1.1318394
17	0x3f81cd1c	1.014072
18	0xbcfe8de2	-0.031073514
19	0x3f5f1f49	0.8715711
20	0x3faef400	1.3668213
21	0x3f926717	1.143771
22	0xbf471461	-0.7776547
23	0x3fade2a7	1.3584794
24	0x402494b5	2.5715764
25	0xc004a803	-2.0727546
26	0xbf7c8558	-0.98640966
27	0xbed06c13	-0.40707454
28	0xbeb2519b	-0.34827885
29	0x3f21de5a	0.63229907
30	0xbfdb8300	-1.7149353
31	0xbf5a4bfb	-0.85272187
32	0x3fc21990	1.5164051
33	0x3fcd967e	1.6061552
34	0x3e88797a	0.2665518
35	0x3f581afb	0.8441617
36	0x3f72bdd9	0.94820935
37	0xbe092dff	-0.13396452
38	0xbcac1ad2	-0.021008883
39	0x3ec8584b	0.39129862
40	0xbe21a64e	-0.15786096
41	0xbf8bad10	-1.091219
42	0xbfedd8dc	-1.8581805
43	0x3e76a9a6	0.24088153
44	0x400b298c	2.1744108
45	0xbfb23cf2	-1.3924849
46	0x3f03cfc3	0.51488894
47	0xbf5f3519	-0.87190396
48	0x3e57f5f7	0.21089922
49	0x3f594aa8	0.8487954
50	0xbf16e80f	-0.58947843
51	0x3e63c05c	0.22241348
52	0xbeadafbc	-0.33923137
53	0xbf3a9651	-0.72885615
54	0xbfd6358f	-1.6735095
55	0x40048ec2	2.0712132
56	0xbe5a5c0b	-0.21324174
57	0x400ce315	2.20136
58	0x3fec730c	1.847261
59	0x3f1cfcb0	0.6132307
60	0x3ed24699	0.41069487
61	0x3e32a59e	0.1744599
62	0x3e3384ea	0.17531171
63	0xbfa4896b	-1.2854437
64	0xbfb4d7d2	-1.4128363
65	0x3f1b9c25	0.6078513
66	0x3edd778d	0.43255273
67	0xbe40f124	-0.18841988
68	0x3fa57526	1.2926376
69	0x3f8a6a6c	1.0813727
70	0xbe542506	-0.20717248
71	0xbf1e5135	-0.6184266
72	0xbe8e913b	-0.27845177
73	0xc00dc050	-2.2148628
74	0x3e8e0014	0.27734435
75	0xbf504e56	-0.8136953
76	0x3e7c14f8	0.24617374
77	0x3f9b587e	1.2136381
78	0xbe053409	-0.13008131
79	0x3e8fffcb	0.28124842
80	0xbfa03bd6	-1.251826
81	0x3ff18cae	1.8871057
82	0xbd91e50a	-0.07123764
83	0x3f424bcc	0.75896907
84	0x3f99f4c8	1.2027826
85	0xbea86ab6	-0.32893914
86	0xbf17ef5f	-0.59349626
87	0x3f083378	0.53203535
88	0xbf5a4c4e	-0.8527268
89	0xbdd7e332	-0.10541381
90	0xbe82de9c	-0.25560462
91	0x3ea4c39b	0.32180485
92	0xbba32154	-0.0049783383
93	0xbee8946e	-0.45425743
94	0x3e45237f	0.19251822
95	0x3e57b6a2	0.21065763
96	0x3e199796	0.14999232
97	0xc00ad161	-2.1690295
98	0xbe80f1d5	-0.25184503
99	0x3f2705b7	0.65243095
100	0x3ec050f6	0.37561768
101	0xbf109b74	-0.564872
102	0x3f86621b	1.049869
103	0xbe7987b4	-0.24368173
104	0x4011c992	2.2779279
105	0xbe15a520	-0.14613771
106	0x3efe46ef	0.49663493
107	0xbf9d4851	-1.2287694
108	0x3eecde9f	0.46263596
109	0xbf32e1bf	-0.6987571
110	0x3e2bfc62	0.16795495
111	0xbfa160e2	-1.2607691
112	0xbe818f1a	-0.2530449
113	0x3f0bf502	0.5467073
114	0xbf9c049c	-1.2188907
115	0xbfab14e8	-1.3365755
116	0x3e259310	0.16169381
117	0x3e30c2e7	0.1726185
118	0xbecfe48c	-0.40604055
119	0x3fadc4ae	1.3575647
120	0x3f972a2d	1.1809746
121	0x3efa777d	0.48919287
122	0xbe55c0e0	-0.20874357
123	0xbfb1df71	-1.3896314
124	0x3f15fb69	0.58586746
125	0x3f09a36f	0.53765005
126	0x3d482775	0.048865754
127	0x3ea1b35a	0.31582147
128	0xbf932866	-1.1496704
129	0x3fd4d544	1.6627584
130	0x3ed68432	0.41897732
131	0xbf8e6026	-1.1123092
132	0x3f0d62c3	0.55228823
133	0x3fac78c5	1.3474356
134	0x4014a01b	2.322272
135	0xbec1a0bd	-0.37817946
136	0xbd7a0ce1	-0.06104744
137	0xbf1d9110	-0.6154947
138	0x3f828de8	1.0199556
139	0x3d56b8e0	0.052422404
140	0xbf6103e9	-0.8789659
141	0xbf835732	-1.0260985
142	0x3d58ac42	0.052898653
143	0xc01c2ca0	-2.4402237
144	0xbeac67b2	-0.33672863
145	0xbf57a03b	-0.8422887
146	0xbf8813cb	-1.063104
147	0xbf3e2016	-0.7426771
148	0x3e2c338c	0.16816539
149	0xbfcc6413	-1.596804
150	0xbe824f14	-0.25450957
151	0x4035cf04	2.8407602
152	0x3f9496bc	1.16085
153	0x3fb107fd	1.3830563
154	0x3c47efcc	0.012203168
155	0x3f593e6a	0.8486086
156	0x3fa9cc8f	1.3265551
157	0xbe957f4f	-0.2919869
158	0xbe8c381e	-0.27386564
159	0xbf2bca94	-0.67105985
160	0x3ecb02ab	0.39650473
161	0xbf8b8cf2	-1.0902388
162	0x3e53ee8c	0.20696467
163	0x401fc042	2.4961095
164	0xbd921754	-0.07133356
165	0xbffa8b61	-1.9573785
166	0x3f7bb0ca	0.98316634
167	0xbf5f49a6	-0.87221754
168	0xbec92b0c	-0.39290655
169	0x3f49e3b1	0.78863055
170	0x3ec47b25	0.38375202
171	0x3ebd85bb	0.3701609
172	0xbfdff890	-1.749773
173	0x3f983ffd	1.1894528
174	0xbf1116f7	-0.56675667
175	0x3f7e3c17	0.9931044
176	0x4012fb41	2.2965853
177	0x3f3dc9fb	0.7413632
178	0xbfaca0e7	-1.3486603
179	0xbea02dfa	-0.31285077
180	0xbf4efd66	-0.80855405
181	0x3ef4fbe4	0.47848427
182	0xbd281ffd	-0.04104613
183	0x3fb08d75	1.3793169
184	0xbf4322be	-0.7622489
185	0xbf46fd2b	-0.77730054
186	0xbef2b20d	-0.47401467
187	0x3e157c43	0.14598183
188	0x3f18c750	0.59679127
189	0xbed92c72	-0.42416722
190	0x3ed95519	0.42447737
191	0x3eeb937f	0.46010968
192	0x3f0f38f2	0.55946267
193	0xbfe3e3b5	-1.7803866
194	0xbfdc6b41	-1.7220231
195	0xbf71afbf	-0.9440879
196	0x4022a64a	2.5413995
197	0xbf40e549	-0.7534986
198	0x3f938aa4	1.1526685
199	0x3cec88f7	0.028873904
200	0xc01859b4	-2.380475
201	0xbe6e8b09	-0.23295225
202	0xbfce6f23	-1.6127666
203	0xbf7a1e44	-0.9770243
204	0x3e4ebf8b	0.20190255
205	0x3fb7b5de	1.4352376
206	0x3f6a9270	0.91629696
207	0x3eb6b775	0.35686842
208	0xbf247fe5	-0.6425765
209	0x3f03752e	0.51350677
210	0x3f0fbfee	0.56152236
211	0xbf2fd248	-0.6868024
212	0xbfda0b78	-1.703475
213	0x3fc1240e	1.5089128
214	0x3ecf978a	0.40545303
215	0x3de03d91	0.10949243
216	0xbe6e96a7	-0.23299657
217	0xbf127097	-0.5720305
218	0xbff3d27a	-1.9048607
219	0xbfd245ae	-1.6427515
220	0xc00bb6aa	-2.183024
221	0xbf53eb01	-0.8278046
222	0xbfe50e58	-1.7895002
223	0xc0118caf	-2.2742116
224	0x3ed101bf	0.40821645
225	0x3def7de9	0.11693937
226	0xbf01b1a4	-0.50661683
227	0x3fac7367	1.3472718
228	0xbdd99a48	-0.1062513
229	0x3f9f695e	1.245403
230	0x3eaed527	0.34146997
231	0x3f0bbd19	0.54585415
232	0x3fc037b5	1.5017
233	0x3f8a70ec	1.0815711
234	0x3f3d5905	0.7396396
235	0x3f2403d1	0.64068323
236	0xbfac23d8	-1.3448439
237	0xbedc2707	-0.42998526
238	0x3f0bcad0	0.5460634
239	0x3f9bfcc0	1.2186508
240	0xbf8640de	-1.0488546
241	0xbf8ab5ed	-1.0836769
242	0x3f0c39b6	0.5477556
243	0x3e792cae	0.2433345
244	0xbfb8dbe3	-1.4442104
245	0xbf2a9741	-0.66637045
246	0xbe96e0bd	-0.29468337
247	0x3fcfb644	1.6227498
248	0x3f851b62	1.0398982
249	0x3ef9eef1	0.4881511
250	0x3e418ece	0.18902132
251	0xbe127e45	-0.1430598
252	0x3e7cbc9d	0.24681325
253	0xc011b8a0	-2.2768936
254	0x3fd79d3c	1.6844859
255	0x3feac362	1.8340876

pos_embedding.weight f4 [11, 16]
0	0xbfa22761	-1.2668267
1	0xbe2a2a08	-0.16617596
2	0xbf08f091	-0.53492075
3	0xbf9f0d88	-1.2426004
4	0x3fd32c8b	1.6497968
5	0x3f5ca7a9	0.8619333
6	0x3f0fdbd8	0.5619483
7	0x3ebaaf0e	0.3646168
8	0xbf7ff160	-0.99977684
9	0x3ffb656d	1.9640328
10	0xbfbdfe0d	-1.4843155
11	0xbf3fe0a9	-0.7495218
12	0x3e8682fa	0.26271802
13	0xbdad34c3	-0.08457329
14	0x3fa185a8	1.2618914
15	0xbeaaba6e	-0.3334536
16	0x3f1e879c	0.61925673
17	0x3e79fbb4	0.24412423
18	0x3f8527d5	1.0402781
19	0x3f68ce26	0.9093956
20	0x40060136	2.093824
21	0x3ffcabba	1.9739907
22	0xbe52a41f	-0.2057042
23	0xbe432953	-0.19058733
24	0x3ed793f4	0.42105067
25	0x3f6506c5	0.89463454
26	0x3f0dfe0e	0.5546578
27	0x3dbf53af	0.09342133
28	0xc04fa6a8	-3.244547
29	0x3ffd4101	1.9785463
30	0x3f32b03f	0.6980018
31	0xbf5ba40d	-0.85797197
32	0xbe4252fb	-0.18976967
33	0xbf42cd1b	-0.76094216
34	0xbfa4acf7	-1.2865285
35	0xbf9126d9	-1.133998
36	0xbf2d13e4	-0.67608476
37	0xbf65233b	-0.8950688
38	0xbf56d2bb	-0.839153
39	0x3d83cac0	0.06435156
40	0x3f1fcf96	0.62426126
41	0x3d8be2f8	0.068304
42	0xbf881722	-1.063206
43	0xbf4cf7a2	-0.8006536
44	0x3fccb408	1.5992441
45	0x3f08bcf6	0.5341333
46	0xbfdc110d	-1.7192703
47	0x3edbc63c	0.42924678
48	0xbe7e6396	-0.24842677
49	0x3f783449	0.9695478
50	0xbea8c6fa	-0.32964307
51	0xbe56c28a	-0.20972648
52	0xbe206b6f	-0.15665983
53	0xc01041fb	-2.2540271
54	0xbee92b59	-0.45540884
55	0xc0043959	-2.0660002
56	0xbf5a40da	-0.85255206
57	0xbe2544af	-0.16139482
58	0xbd64993d	-0.055810202
59	0xbf798b53	-0.97478217
60	0xbdf69e22	-0.1204188
61	0x3ea88143	0.3291112
62	0x3f818cf0	1.0121136
63	0x3e261fd0	0.16223073
64	0xbede926b	-0.43471083
65	0xbe76add9	-0.24089755
66	0x3f0a38ab	0.5399272
67	0x3f585454	0.84503675
68	0xbf03abd3	-0.5143406
69	0x3f6d0fd5	0.9260228
70	0x3e814d30	0.25254202
71	0xbf37a301	-0.717331
72	0xbf67a263	-0.9048216
73	0xc00491d5	-2.071401
74	0x3f0fbdea	0.5614916
75	0xbe85c8e5	-0.26129833
76	0xbc67570e	-0.014119877
77	0xbfc47ba2	-1.535023
78	0xbf1de321	-0.61674696
79	0xbecea60a	-0.40361053
80	0x3fb00818	1.375247
81	0xbf0e8e01	-0.5568543
82	0x3e4bf867	0.19918977
83	0x3e11b010	0.14227319
84	0xbf8d792d	-1.1052605
85	0x3e39cc7b	0.1814441
86	0x3ea0bb91	0.31393102
87	0x3f597747	0.8494763
88	0xbda55bfe	-0.08074187
89	0x3f0376a7	0.51352924
90	0xbe4d50c0	-0.20050335
91	0x3e134194	0.14380485
92	0xbe39adbb	-0.18132679
93	0x3faea80c	1.3645034
94	0x3ff82474	1.9386125
95	0xbf49e46e	-0.7886418
96	0x3dace363	0.08441808
97	0x3f96ffae	1.1796777
98	0x3fa1f519	1.2652923
99	0xbfdf15a9	-1.7428485
100	0x3f137c7c	0.57611823
101	0xbe22ccf4	-0.15898496
102	0x3ece0f9f	0.40246293
103	0xbeb039e3	-0.34419164
104	0x3ecd4746	0.4009344
105	0x3ea47ff3	0.32128868
106	0xbd46c91d	-0.04853164
107	0xbf00dc5e	-0.50336254
108	0x3f48992a	0.7835871
109	0x3ed2203b	0.41040215
110	0xbfd80bd2	-1.6878607
111	0x3ec21ed3	0.37914142
112	0xbf0835bc	-0.5320699
113	0xbe821c3a	-0.2541216
114	0xbfac0d79	-1.3441612
115	0x400a6d4d	2.1629212
116	0xbd8da1c4	-0.0691562
117	0xbdb24e21	-0.08706308
118	0xbf2a9d3f	-0.6664619
119	0x3f125517	0.57161087
120	0x3f9b7fb6	1.2148349
121	0xbfa30ffd	-1.2739254
122	0x3f1c5e53	0.6108143
123	0xbea6916f	-0.32532832
124	0xbe33746e	-0.17524883
125	0x3f5cb9c4	0.86220956
126	0xbfb472ee	-1.4097574
127	0x3fde493a	1.7366097
128	0xbf77c164	-0.96779466
129	0xbeee4ad7	-0.46541473
130	0x3e90febe	0.28319353
131	0x3f47864d	0.779393
132	0x3f9baf94	1.2162957
133	0xbedab814	-0.42718565
134	0x3f925810	1.1433125
135	0x3f84c867	1.0373658
136	0xbfbd8569	-1.4806339
137	0xbfd7060a	-1.6798718
138	0xbfb4cce3	-1.4125026
139	0xbeb4bdf0	-0.3530116
140	0x3d53507b	0.051590424
141	0x3eb1c82f	0.3472304
142	0xbec0c53a	-0.37650472
143	0x3e17ed10	0.14836526
144	0x3fbfe68b	1.4992231
145	0x3f7b9743	0.9827768
146	0xbf860660	-1.0470695
147	0x3ec8fe74	0.39256632
148	0x3f450f70	0.7697668
149	0x3e268b15	0.16263993
150	0x3fc12e42	1.5092242
151	0x3fc4ee3a	1.5385201
152	0xbc94e7f5	-0.018177012
153	0x3e7becf9	0.24602117
154	0xbe8e8919	-0.27838972
155	0x3e2acfa4	0.16680771
156	0x3e202cc5	0.15642078
157	0x3f8d2b68	1.1028872
158	0xbfa645a6	-1.2990005
159	0x3e6b4629	0.22975983
160	0xbf4caebd	-0.7995413
161	0x3f0a40ef	0.5400533
162	0xbfd1e802	-1.6398928
163	0xbf4eca50	-0.80777454
164	0xbede3276	-0.43397874
165	0xbfdef3ba	-1.741813
166	0xc01950ed	-2.3955643
167	0x3ed5b3cb	0.41738734
168	0x3f9c0c0a	1.2191174
169	0x3f44eae2	0.769209
170	0xbf96bd7b	-1.1776575
171	0xbfb7fd19	-1.4374114
172	0xbeb3df50	-0.3513131
173	0xbeadf5da	-0.33976632
174	0x3f30a927	0.69008106
175	0xbf58ff28	-0.8476434

transformer_encoder.layers.0.self_attn.in_proj_weight f4 [48, 16]
0	0xbdb0dce8	-0.086358845
1	0xbea26a62	-0.3172179
2	0x3d2f6e0c	0.04282956
3	0xbde9a899	-0.114091106
4	0xbddd9dd8	-0.10821122
5	0x3e14ff0b	0.14550416
6	0x3e01c5bd	0.12673087
7	0xbd3a0f01	-0.045424465
8	0x3d9e90ff	0.077424996
9	0x3e300b34	0.17191774
10	0x3d949d8e	0.07256614
11	0x3e80edcd	0.25181428
12	0x3e4bfafe	0.19919965
13	0x3e21cf47	0.15801726
14	0xbe48f5d1	-0.19625022
15	0x3e6c7c62	0.23094323
16	0x3e652ec8	0.22381127
17	0xbeaf2c41	-0.3421345
18	0x3e81a970	0.25324583
19	0x3ddd11da	0.107944205
20	0xbcb87174	-0.022515036
21	0xbcf04d83	-0.029333835
22	0x3e601721	0.21883823
23	0xbe4493b9	-0.19196977
24	0x3e592e53	0.21209078
25	0x3d4f1982	0.050561436
26	0x3e027389	0.12739386
27	0xbdd7f2cc	-0.10544357
28	0xbd3539f0	-0.044244707
29	0xbddc173d	-0.1074662
30	0x3d8cb8d6	0.06871192
31	0x3e68965a	0.22713605
32	0xbd990f38	-0.07473606
33	0xbe630e51	-0.2217343
34	0x3eaec626	0.3413555
35	0x3e912b92	0.28353554
36	0xbe91ed4e	-0.28501362
37	0x3c8a22c7	0.016862286
38	0x3e490cd2	0.19633797
39	0xbd22d947	-0.039757993
40	0xbe81a5da	-0.25321847
41	0x3e8a1999	0.26972654
42	0x3d2d9c0a	0.04238514
43	0xbd1dbacf	-0.038508233
44	0xbc2392e3	-0.009983751
45	0x3e047824	0.12936455
46	0xbe3b42ff	-0.18287276
47	0x3d06085c	0.032722816
48	0x3dfe01f7	0.124027185
49	0xbe857163	-0.2606307
50	0x3e6dd91b	0.2322735
51	0x3e5fad15	0.2184337
52	0x3e728089	0.23681845
53	0x3e5d5d78	0.21617687
54	0xbdae5d68	-0.085139096
55	0x3eaf17b0	0.3419776
56	0xbdc26ba6	-0.094931886
57	0x3de2371a	0.11045666
58	0xbde6f269	-0.11276705
59	0xbd250aa7	-0.040293362
60	0x3e8024c6	0.25028056
61	0xbda26328	-0.07929069
62	0xbd551f42	-0.052031763
63	0x3e666a0a	0.22501388
64	0xbea1ef98	-0.31628108
65	0xba125589	-0.0005582204
66	0xbe4379e9	-0.19089474
67	0x3e4bf2fb	0.19916908
68	0xbe5326c0	-0.2062025
69	0xbe0ff825	-0.14059503
70	0x3e80c7a0	0.25152302
71	0xbe6245cb	-0.22096936
72	0xbca303c0	-0.01989925
73	0x3d56a831	0.052406494
74	0xbe5b384c	-0.21408194
75	0x3d1e9bcc	0.0387228
76	0xbe120351	-0.14259078
77	0x3e0b0326	0.1357542
78	0x3e659cf1	0.2242315
79	0xbe6eeddb	-0.23332922
80	0xbe199b07	-0.15000544
81	0x3e4eca0b	0.20194261
82	0x3de83d78	0.11339849
83	0x3eb6a6ae	0.35674042
84	0x3e613b6a	0.21995321
85	0x3e528a1b	0.20560496
86	0xbd8738d1	-0.06602634
87	0xbd2b20fe	-0.04177951
88	0x3d96ac81	0.07357121
89	0xbe94b5b1	-0.2904487
90	0x3e82e365	0.25564113
91	0xbe96269c	-0.29326332
92	0x3df90b1e	0.121603236
93	0x3e5fd871	0.2185991
94	0xbe98f56e	-0.29874748
95	0x3da76444	0.08173421
96	0xbe476fdd	-0.19476266
97	0xbe55713b	-0.20843975
98	0x3e5f7686	0.21822557
99	0xbd54aff6	-0.051925622
100	0xbe6620a0	-0.22473383
101	0x3e6e56d2	0.23275307
102	0xbd962b8a	-0.07332523
103	0x3e4ff6c5	0.20308979
104	0x3dcbf7c8	0.0995937
105	0xbebaa4b6	-0.3645379
106	0x3e058def	0.13042425
107	0x3dedd8dc	0.11613628
108	0x3da91981	0.082568176
109	0x3dae969a	0.08524819
110	0x3e9eb600	0.3099823
111	0xbeb6d45a	-0.35708886
112	0x3d8f44c4	0.06995538
113	0xbd9338a4	-0.07188538
114	0xbe62844c	-0.2212078
115	0xbe9e6e27	-0.30943415
116	0x3e9a2318	0.301049
117	0xbdb8b30d	-0.09018526
118	0xbe8b15b6	-0.27165002
119	0x3ddde00a	0.10833748
120	0xbcce4bda	-0.025182653
121	0x3e93b911	0.28852132
122	0xbe28787a	-0.16452208
123	0x3da5a8b3	0.080888174
124	0xbe99cb60	-0.30037975
125	0x3ca5d54f	0.020243315
126	0xbd55f734	-0.052237704
127	0xbe54fa00	-0.20798492
128	0x3e9c9a12	0.30586296
129	0x3cde87bf	0.027164338
130	0xbd54e9dd	-0.051980842
131	0x3e9cefde	0.30651754
132	0xbe8d09e0	-0.27546597
133	0x3dc1b8dc	0.09459087
134	0xbc6b4635	-0.01436
135	0x3e4bebc5	0.19914158
136	0xbeb9245e	-0.36160558
137	0x3e802545	0.25028434
138	0xbe18ee29	-0.14934601
139	0xbd69cd52	-0.057080574
140	0x3e30d385	0.17268188
141	0xbe78993b	-0.24277203
142	0x3e908d5b	0.28232846
143	0x3e90f249	0.2830985
144	0xbeb6d12e	-0.35706466
145	0xbe71be18	-0.23607671
146	0x3d37a471	0.044834558
147	0x3dff2cba	0.12459703
148	0xbd8ad7f3	-0.0677947
149	0x3e05958a	0.13045326
150	0x3dcbd8c7	0.09953456
151	0x3e739600	0.23787689
152	0x3d227f60	0.039672256
153	0x3e948f33	0.29015502
154	0xbe64e7a6	-0.22353992
155	0xbe2353ac	-0.15949887
156	0x3e21c8c4	0.15799242
157	0x3dea11f6	0.11429207
158	0xbd1dabf0	-0.03849405
159	0x3dba8650	0.09107649
160	0xbdb6aa8c	-0.08919248
161	0xbdd98c30	-0.10622442
162	0xbe6c3e90	-0.2307074
163	0xbd9f4f9b	-0.077788554
164	0x3de255cf	0.11051523
165	0x3d939b5a	0.07207365
166	0x3dfe4a0b	0.12416466
167	0x3e938fee	0.28820747
168	0xbe8f37b6	-0.27972192
169	0xbe249ed4	-0.16076213
170	0xbe8e398e	-0.27778286
171	0x3e7caf3c	0.24676222
172	0xbe5b4508	-0.21413052
173	0x3e11f3c8	0.14253151
174	0x3e4b57c8	0.19857705
175	0x3ce03006	0.02736665
176	0xbd3c4319	-0.045962427
177	0xbdd94add	-0.10609982
178	0xbe259756	-0.16171011
179	0xbe86d3bf	-0.26333424
180	0x3d39fa19	0.045404527
181	0xbd9355d5	-0.071941055
182	0xbe124494	-0.14283973
183	0x3e980a16	0.29695195
184	0x3cd8e6fb	0.026477328
185	0xbe418449	-0.18898119
186	0xbe88f0c3	-0.26746187
187	0x3d3dd31e	0.046343915
188	0xbde9e35e	-0.1142032
189	0x3e2fb12f	0.17157434
190	0x3e68ec8b	0.22746484
191	0x3e5195e3	0.20467333
192	0xbe4fd4b9	-0.20295991
193	0x3e849fc0	0.2590313
194	0xbe97fbcd	-0.29684296
195	0x3dc43f4f	0.09582388
196	0xbe8a90ca	-0.2706359
197	0x3ce04c66	0.02738018
198	0x3e92ade8	0.28648305
199	0x3e4f25c7	0.20229255
200	0xbea0a924	-0.31379044
201	0x3e6074df	0.21919583
202	0x3e854984	0.2603265
203	0x3ea3b8d8	0.31976962
204	0xbe1d0631	-0.15334393
205	0xbeaaef9e	-0.33385938
206	0x3e5b1fe4	0.21398884
207	0xbe704dcc	-0.23467177
208	0xbdc634ba	-0.096780255
209	0xbe38fb1c	-0.1806454
210	0xbe911d53	-0.28342685
211	0xbe60c71c	-0.21950954
212	0xbe3973d8	-0.18110597
213	0x3d382732	0.044959255
214	0xbe180b69	-0.14848103
215	0x3e1aaff5	0.15106185
216	0xbc6d43ae	-0.014481468
217	0xbeb4577e	-0.35223
218	0xbe36c635	-0.17849047
219	0x3e44b483	0.19209485
220	0x3e13667f	0.14394568
221	0xbe8a11a8	-0.26966596
222	0x3e9d519f	0.30726334
223	0x3e86cf99	0.2633026
224	0xbd4bf1be	-0.04979109
225	0x3cdc5cc1	0.026899697
226	0xbe89294d	-0.26789322
227	0xbe3eba7a	-0.18625823
228	0x3e85ff61	0.261714
229	0x3e1267fd	0.14297481
230	0xbe82520c	-0.25453222
231	0x3e241b19	0.16025962
232	0xba82ee1f	-0.0009989179
233	0xbe8c420c	-0.2739414
234	0xbe8c99e9	-0.27461174
235	0x3cec2c48	0.028829709
236	0xbe610b59	-0.21976985
237	0x3e926f96	0.28600758
238	0xbd39c19f	-0.045350667
239	0xbe1d649a	-0.15370408
240	0x3d9f1e7b	0.077694856
241	0x3e6fa59c	0.23403019
242	0xbea09cad	-0.31369534
243	0x3e806e39	0.25084093
244	0xbd34b9e7	-0.044122603
245	0x3d8493b4	0.06473485
246	0xbe878f8b	-0.26476702
247	0xbe46d744	-0.19418055
248	0x3e2a6f27	0.16643964
249	0x3cc6f18e	0.024285104
250	0xbe048ebb	-0.12945072
251	0x3d7944e9	0.060856733
252	0x3ddbf2ee	0.107396945
253	0x3ea1e41c	0.31619346
254	0x3d758412	0.059940405
255	0xbdc69560	-0.0969646

transformer_encoder.layers.0.self_attn.in_proj_bias f4 [48]
0	0xbd39c407	-0.045352962
1	0x3b8cd79d	0.004298164
2	0x3b9f59e3	0.0048630103
3	0x3cc91e22	0.024550501
4	0xbd2002b1	-0.039065067
5	0x3ca822be	0.020524379
6	0x3d17632b	0.03695981
7	0x3b479369	0.0030452854
8	0xbcaa5823	-0.02079398
9	0x3d0e6a6f	0.03476947
10	0xbc974706	-0.018466484
11	0xbc959133	-0.018257713
12	0x3d103413	0.03520591
13	0xbcbacafc	-0.022801869
14	0xbb193be8	-0.0023381654
15	0x3cb73d3a	0.022368062
16	0x3b18ef97	0.0023336166
17	0x3a1f69c7	0.00060811307
18	0x3b7c7955	0.0038524468
19	0xbb1e30b3	-0.0024137914
20	0xbbf47345	-0.0074600303
21	0x3c7e50da	0.015522206
22	0x3b467b2d	0.003028582
23	0x3b1d3faf	0.0023994257
24	0x3c07942f	0.008275076
25	0xbb35e722	-0.0027756174
26	0xba9fa7e0	-0.0012180768
27	0x39f53126	0.0004676666
28	0x3bb1d6fd	0.00542724
29	0x3b4473eb	0.002997632
30	0x3be2944f	0.0069146524
31	0xba4b7617	-0.0007761432
32	0xbc0bfd81	-0.008544327
33	0x3b248368	0.0025102738
34	0xbac6ef8a	-0.0015177589
35	0x3b9803fb	0.0046391464
36	0x3c07fa23	0.008299383
37	0xbbee048f	-0.007263727
38	0xb884685e	-6.3136904e-05
39	0x3b57e45c	0.003294251
40	0x3c68769b	0.014188434
41	0xbab62a3d	-0.0013898086
42	0xb755e17b	-1.2748288e-05
43	0xbb6e1374	-0.0036327513
44	0x36c8cac7	5.984071e-06
45	0xbc1a99d0	-0.009436086
46	0x3ad0ebe1	0.0015939438
47	0xbbc3c75a	-0.0059746923

transformer_encoder.layers.0.self_attn.out_proj.weight f4 [16, 16]
0	0xbe2a194f	-0.16611217
1	0x3cac7b93	0.021055019
2	0x3e35f960	0.1777091
3	0xbe628988	-0.22122777
4	0xbe00c057	-0.12573372
5	0xbe43f3b2	-0.19135931
6	0xbe8cb27f	-0.27479932
7	0xbe01667a	-0.12636748
8	0x3db0c445	0.086311854
9	0xbe3b623b	-0.1829919
10	0xbd99f089	-0.075165816
11	0xbdd5cf96	-0.104399845
12	0x3cd3a56e	0.025835719
13	0x3c10bd15	0.008834143
14	0x3dbcbc67	0.092156224
15	0x3de65147	0.11245971
16	0xbe84eb2b	-0.2596067
17	0xbcc1f9fa	-0.023678768
18	0xbe391433	-0.18074112
19	0x3e125b5d	0.14292665
20	0xbe6fa79f	-0.23403786
21	0x3e57f3aa	0.21089044
22	0x3b14d56c	0.0022710217
23	0xbde16b91	-0.11006845
24	0xbcfc479d	-0.030795867
25	0x3e837603	0.25675973
26	0x3cad70db	0.021171978
27	0x3e481c4f	0.19542049
28	0xbdd8736b	-0.10568889
29	0x3e1bef1d	0.15227933
30	0xbcd1a7b6	-0.025592666
31	0xbdae637d	-0.0851507
32	0x3e2532a5	0.161326
33	0x3e70980c	0.23495501
34	0xbe7653a0	-0.24055338
35	0xbe739911	-0.23788859
36	0x3da880ad	0.08227668
37	0x3e579493	0.2105277
38	0x3d036461	0.03207815
39	0x3d3d3fdd	0.046203483
40	0xbe54a37b	-0.20765488
41	0x3e2829a7	0.16422139
42	0xbe0fdc06	-0.14048776
43	0x3e5b823a	0.21436396
44	0x3e0659f6	0.13120255
45	0x3e7ce8f8	0.24698246
46	0xbdfe0e48	-0.12405068
47	0xbdcc451b	-0.09974118
48	0x3dc4ed30	0.096155524
49	0xbd7df9e2	-0.062005885
50	0x3b22a758	0.0024818983
51	0x3e361224	0.17780358
52	0xbdd2b9fb	-0.10289379
53	0x3e0f4b05	0.13993461
54	0x3e303ae4	0.17209965
55	0xbce55958	-0.027996704
56	0x3d03e545	0.03220107
57	0x3e2d68aa	0.16934457
58	0xbe3a9242	-0.18219855
59	0xbdcadd20	-0.099054575
60	0x3dad1688	0.08451563
61	0x3e08cd8e	0.13359663
62	0x3e052888	0.13003743
63	0xbe765e49	-0.24059404
64	0xbdc32738	-0.09528965
65	0xbda5822c	-0.08081469
66	0x3cbd6eb1	0.02312407
67	0xbd4baa98	-0.049723238
68	0x3e00d4fb	0.12581246
69	0xbe3c4f79	-0.18389691
70	0x3d941566	0.07230644
71	0x3e0badfb	0.13640587
72	0xbe3f3a57	-0.18674599
73	0x3debeab7	0.11519378
74	0xbe70ae4b	-0.23503987
75	0xbde18d5e	-0.11013292
76	0xbd86d9dd	-0.06584523
77	0xbde56346	-0.112005755
78	0xbe5983af	-0.2124164
79	0xbde513f5	-0.11185447
80	0xbcbe3ba8	-0.023221806
81	0xba7cb6df	-0.0009640287
82	0xbe96f798	-0.29485774
83	0x3db82072	0.089905635
84	0x3e03076a	0.12795797
85	0x3dea7b8e	0.114493474
86	0xbb9ee082	-0.0048485408
87	0x3db6e7ea	0.08930953
88	0x3e74457a	0.23854628
89	0xbd1ff599	-0.03905258
90	0x3e0751ae	0.13214752
91	0xbc371cb1	-0.011176274
92	0x3db03876	0.08604519
93	0xbd2afbdb	-0.041744094
94	0x3e7ea2e3	0.24866824
95	0xbcb6b41e	-0.022302683
96	0xbe5dddfa	-0.21666709
97	0x3b444e12	0.002995376
98	0xbdfa1fef	-0.12213122
99	0x3de67f53	0.11254754
100	0xbe8643dc	-0.26223648
101	0xbe6077f4	-0.21920758
102	0x3d54614f	0.051850613
103	0x3e2ba8c5	0.16763599
104	0xbe5331d8	-0.20624483
105	0x3dea968f	0.11454498
106	0xbe1e3f53	-0.15453844
107	0xbe309190	-0.17243028
108	0x3dd06a90	0.10176575
109	0x3d353375	0.044238526
110	0x3da7ea81	0.08199025
111	0xbd455b07	-0.048182514
112	0xbe2b3f6b	-0.16723411
113	0xbe884eae	-0.26622528
114	0x3e694963	0.22781901
115	0x3da143b5	0.07874242
116	0xbd927a8f	-0.071522824
117	0xbe871a57	-0.26387283
118	0xbda789ff	-0.081806175
119	0xbe3842ab	-0.17994182
120	0x3e59c93b	0.2126817
121	0xbe0d9878	-0.13827693
122	0x3cc86855	0.024463812
123	0x3d189e1c	0.03726016
124	0x3df8cbae	0.12148224
125	0xbdcdb9ab	-0.10045179
126	0xbc7ab866	-0.015302753
127	0x3d09790a	0.033562697
128	0xbd52a592	-0.05142743
129	0x3cfb55b9	0.030680524
130	0xbdadf4f0	-0.08493984
131	0xbe66b218	-0.22528875
132	0xbc8a617c	-0.016892187
133	0xbca7eb18	-0.020497844
134	0xbe483510	-0.19551492
135	0x3e1a6d54	0.15080768
136	0xbe14c5e2	-0.14528611
137	0x3e42c149	0.19019045
138	0x3dedc9ee	0.11610781
139	0x3d93e364	0.07221106
140	0xbd6ad36d	-0.057330538
141	0xbe66598b	-0.22495095
142	0x3df83179	0.12118811
143	0xbdb56ae9	-0.08858282
144	0x3e253b31	0.16135861
145	0xbda27ec0	-0.07934332
146	0x3d445587	0.047933128
147	0xbe040a25	-0.12894495
148	0x3d751aab	0.059839886
149	0x3db31d4c	0.08745822
150	0x3e4cf12c	0.20013875
151	0xbdda44f6	-0.106576845
152	0x3e6f60fc	0.2337684
153	0x3d05513d	0.032548178
154	0xbc10f91c	-0.008848455
155	0x3caae26b	0.020859918
156	0xbda48c6b	-0.08034595
157	0xbe82aa2c	-0.25520456
158	0x3e06d7f9	0.13168325
159	0xbe0d10f1	-0.13775994
160	0xbda829c4	-0.08211091
161	0x3e545b80	0.2073803
162	0xbdedf793	-0.11619487
163	0xbe5143a9	-0.20435967
164	0x3b3ea4bd	0.002908989
165	0xbe23f7f3	-0.16012554
166	0x3e53564b	0.20638387
167	0xbddc006b	-0.10742267
168	0x3e0b93c9	0.13630594
169	0xbd3e086d	-0.046394754
170	0xbd542b2a	-0.051798977
171	0x3c37867d	0.011201498
172	0xbd285bbf	-0.04110312
173	0x3dcdc81f	0.10047936
174	0x3c812a5a	0.015767265
175	0x3e5460dd	0.20740075
176	0xbe45cdb5	-0.19316752
177	0x3d84f755	0.06492487
178	0x3d39a35d	0.04532181
179	0xbe1d2726	-0.15346965
180	0xbe148380	-0.14503288
181	0x3d3f813d	0.04675411
182	0xbd517626	-0.051138066
183	0x3e0d45df	0.13796185
184	0xbc0718b3	-0.008245635
185	0xbe303346	-0.1720706
186	0xbd5c90e9	-0.053849135
187	0x3d2a87bb	0.04163335
188	0xbe988a54	-0.29793036
189	0xbdba2438	-0.090889394
190	0xbdea3438	-0.11435741
191	0x3d993884	0.074814826
192	0x3e41b937	0.1891831
193	0x3d345a10	0.044031203
194	0xbc9e7d66	-0.019346904
195	0x3e02ee6e	0.12786266
196	0xbe547b29	-0.20750107
197	0x3e1df161	0.1542411
198	0x3e36b470	0.17842269
199	0x3d028cbb	0.031872492
200	0xbc6c8645	-0.014436309
201	0x3e53d3aa	0.20686212
202	0xbe37f31d	-0.17963834
203	0x3ae1b156	0.0017218988
204	0x3e04d4a1	0.12971736
205	0x3d2e68d1	0.04258043
206	0xbbdb07b1	-0.0066842665
207	0x3e3231dc	0.17401832
208	0xbe45dd57	-0.19322716
209	0x3e98ebef	0.29867503
210	0x3e53db98	0.20689237
211	0xbdc4118a	-0.09573658
212	0xbd1f8fdc	-0.038955554
213	0xbc01da3b	-0.007925565
214	0x3e84018c	0.2578243
215	0x3e509202	0.20368198
216	0xbd7aa7e5	-0.061195273
217	0x3ce50276	0.027955275
218	0xbe17fd07	-0.14842616
219	0x3ca82695	0.02052621
220	0xbdb6ebaa	-0.08931668
221	0xbe13b8af	-0.1442592
222	0xbe2a5377	-0.16633402
223	0xbe72ccb3	-0.23710899
224	0x3e917f10	0.28417253
225	0x3df75f20	0.120786905
226	0x3e4d0f5d	0.20025392
227	0xbcb03763	-0.021510785
228	0xbe2947d6	-0.1653131
229	0x3cd6c331	0.026216121
230	0x3de43c6d	0.11144338
231	0xbdda1f51	-0.106505044
232	0x3dc82f90	0.09774697
233	0xbe667396	-0.2250503
234	0xbba723e6	-0.005100715
235	0x3e2a0584	0.16603667
236	0xbd767ebf	-0.06017947
237	0x3c9e7da0	0.019347012
238	0xbe87f18a	-0.26551467
239	0xbe479835	-0.19491656
240	0x3e52eb51	0.20597579
241	0xbd3f3bbf	-0.046687838
242	0x3e2fc48f	0.17164825
243	0xbdbcb44c	-0.092140764
244	0x3c240d13	0.010012883
245	0xbcd86d09	-0.02641918
246	0xbe849060	-0.258914
247	0x3c981d60	0.018568695
248	0xbe67500f	-0.22589134
249	0x3da4eaee	0.08052622
250	0xbe6fcd6e	-0.23418209
251	0x3e6634ec	0.22481126
252	0xbe20edfa	-0.15715781
253	0xbe485223	-0.19562583
254	0xbdcf06a2	-0.10108687
255	0x3e93a420	0.28836155

transformer_encoder.layers.0.self_attn.out_proj.bias f4 [16]
0	0xbbbc560f	-0.0057475637
1	0xbc8d63a4	-0.017259426
2	0xbb2bd154	-0.0026217299
3	0xbbd472c0	-0.006483406
4	0x3d2ea677	0.042639222
5	0x3caeba86	0.021329176
6	0xbc825fdd	-0.015914852
7	0xbb3f0b6e	-0.00291511
8	0xbacaa8c9	-0.0015461679
9	0xbd1209e1	-0.035653953
10	0x3c1a068e	0.009400977
11	0xbb712452	-0.003679533
12	0xbc519d07	-0.012793786
13	0x3af310e8	0.0018544467
14	0xbbb98ec7	-0.0056627723
15	0x3bfa4106	0.007637146

transformer_encoder.layers.0.linear1.weight f4 [32, 16]
0	0xbde1d3b4	-0.11026707
1	0x3d4a62e3	0.049410712
2	0xbe7dc4b8	-0.24782073
3	0x3d9faa04	0.077961
4	0x3df17cff	0.11791419
5	0x3e621a9c	0.22080463
6	0xbd48d88a	-0.049034633
7	0x3df0d16a	0.117586926
8	0xbbde9080	-0.006792128
9	0xbd9d18a6	-0.07670717
10	0xbcc6bd08	-0.024260059
11	0x3e20df65	0.15710218
12	0xbe19f3ff	-0.15034483
13	0xbcd79730	-0.026317209
14	0xbe0637b5	-0.13107188
15	0xbb2905e9	-0.0025790876
16	0x3d04b275	0.032396752
17	0xbe5497db	-0.20761053
18	0x3e49a60e	0.19692251
19	0xbd90e70d	-0.070753194
20	0x3d31c717	0.043402757
21	0xbddbb282	-0.10727407
22	0x3e6cdab3	0.23130302
23	0x3d8eb85f	0.0696876
24	0xbde64334	-0.11243287
25	0x3dbcb7e0	0.09214759
26	0x3c3d5f3b	0.011558349
27	0x3e8edf37	0.27904674
28	0x3e001c61	0.12510826
29	0xbdc33bd7	-0.09532898
30	0x3e688876	0.22708306
31	0x3e1b5253	0.15168123
32	0x3e84d047	0.25940153
33	0x3d8ea790	0.06965554
34	0x3ded98f8	0.11601442
35	0x3d9dafe9	0.07699568
36	0x3b95c8e8	0.004571069
37	0x3db4008f	0.08789169
38	0xbd4b6baa	-0.049663223
39	0xbe8a54d7	-0.27017853
40	0xbe8846bb	-0.26616463
41	0xbe2dad8f	-0.16960739
42	0x3d966887	0.07344156
43	0x3d55288a	0.052040614
44	0xbe25557c	-0.16145891
45	0x3e5aa354	0.21351367
46	0xbe329544	-0.17439753
47	0x3e40d956	0.18832907
48	0x3e327a38	0.17429435
49	0x3c82a6c9	0.01594867
50	0x3caa1016	0.020759623
51	0x3b982263	0.004642771
52	0x3dd0c0db	0.10193034
53	0x3d978303	0.073980354
54	0xbd39d373	-0.04536767
55	0xbce14e15	-0.027503053
56	0x3d14c2d4	0.036318615
57	0x3e080e09	0.13286604
58	0xbc5679b3	-0.013090539
59	0xbe0eb53f	-0.13936327
60	0x3e32e03f	0.17468356
61	0x3e676199	0.22595824
62	0xbdef6a83	-0.116902374
63	0xbdbe27fa	-0.09284969
64	0xbe75f85c	-0.24020523
65	0x3d1e9d01	0.03872395
66	0xbe97dc74	-0.2966038
67	0xbe157037	-0.14593588
68	0xbdeb18e3	-0.11479356
69	0xbe80bf0e	-0.25145763
70	0x3dcb3f18	0.099241436
71	0x3e8d3f5e	0.27587408
72	0xbe3943a0	-0.18092203
73	0x3c9af2a2	0.018914524
74	0x3e2ef775	0.17086585
75	0x3de4aedf	0.111661665
76	0x3e37aa40	0.17936039
77	0x3e88fa18	0.26753306
78	0x3a282481	0.0006414131
79	0x3e0d9772	0.13827303
80	0x3d5f1ed3	0.054472756
81	0xbd65bca0	-0.05608809
82	0xbe82ec8e	-0.25571102
83	0xbe06b8de	-0.13156459
84	0xbd2e8505	-0.042607326
85	0xbe1556ef	-0.14583944
86	0xbddce36f	-0.10785567
87	0x3e0efdf7	0.13964067
88	0xbd207e9d	-0.039183248
89	0x3d80ae26	0.06283216
90	0x3e485965	0.19565351
91	0x3e791784	0.24325377
92	0xbe01594a	-0.12631717
93	0xbd4c9aa2	-0.049952157
94	0x3d6bf307	0.057604816
95	0x3e7d8cb1	0.24760701
96	0xbe6a42af	-0.22877
97	0x3dd5076c	0.10401806
98	0x3d4baabd	0.049723376
99	0x3e42346e	0.18965313
100	0xbd89a5e1	-0.06721092
101	0x3d96969a	0.07352944
102	0x3ca3343a	0.019922365
103	0xbe1b3139	-0.15155496
104	0xbe0dc910	-0.1384623
105	0x3c72dd8d	0.01482333
106	0xbd479a19	-0.048730943
107	0xbd2f207d	-0.042755593
108	0x3e920566	0.28519744
109	0x3dd961a2	0.10614325
110	0x3e00a59e	0.12563178
111	0x3a5bd5af	0.00083860283
112	0x3c237013	0.009975451
113	0x3e5ad11d	0.21368833
114	0xbe230c82	-0.1592274
115	0x3d949c10	0.07256329
116	0xbd5c3ae1	-0.05376709
117	0x3e26eee5	0.16302069
118	0x3d419968	0.04726544
119	0x3e5bdaa8	0.2147013
120	0xbe08ec5f	-0.13371418
121	0xbe641fec	-0.22277802
122	0x3c7752ed	0.015095455
123	0x3e002e94	0.12517768
124	0xbe5ce118	-0.21570241
125	0xbdcfe7f1	-0.10151661
126	0xbcbdf726	-0.023189139
127	0x3e1724b6	0.14760098
128	0xbdaaa9ce	-0.08333169
129	0xbe70aa2e	-0.23502418
130	0xbd9fdaf7	-0.07805436
131	0xbe105c2f	-0.14097665
132	0xbe2523b4	-0.16126901
133	0xbe043df7	-0.12914263
134	0x3e201ff3	0.15637188
135	0x3de79f36	0.11309664
136	0x3d6d8173	0.05798478
137	0x3e55285c	0.20816177
138	0xbd2b71f5	-0.041856725
139	0xbd00c19d	-0.031434644
140	0x3e409487	0.18806659
141	0xbdbbc45f	-0.09168314
142	0x3e1ba56b	0.1519982
143	0x3d4585b4	0.048223212
144	0xbe21d4d7	-0.15803848
145	0xbca12db3	-0.019675111
146	0x3d389eb3	0.045073222
147	0xbcfe8723	-0.031070298
148	0xbdfac6c1	-0.122449405
149	0xbe58e39c	-0.21180576
150	0x3dd9d539	0.10636372
151	0xbde42bc0	-0.11141157
152	0xbd07056a	-0.032964148
153	0xbe266070	-0.16247725
154	0xbe10bb51	-0.14133956
155	0xbe181c33	-0.14854507
156	0xbe3856ff	-0.18001936
157	0x3e8df35f	0.2772474
158	0xbe062915	-0.13101609
159	0xbe2aff16	-0.1669887
160	0xbdf57056	-0.11984317
161	0x3dedadb9	0.116054006
162	0x3e65df97	0.22448574
163	0xbe716f4d	-0.23577614
164	0xbc711ddd	-0.014716593
165	0xbd9214ad	-0.0713285
166	0x3e34538f	0.1761
167	0x3bae4fdf	0.00531958
168	0xbe37ce75	-0.17949851
169	0x3da71774	0.0815877
170	0x3df118ba	0.11772294
171	0xbdd08851	-0.1018225
172	0x3e4f3ce8	0.20238078
173	0xbdc6a8fb	-0.09700199
174	0xbe02ec6f	-0.12785505
175	0xbd11364f	-0.035452183
176	0x3ddd4e7e	0.10805987
177	0x3e62a4f4	0.22133237
178	0x3e3c621c	0.18396801
179	0xbdd826c1	-0.10554267
180	0xbd3c1450	-0.04591781
181	0xbd00d3a8	-0.03145185
182	0xbe10d984	-0.14145476
183	0xbd036a07	-0.032083537
184	0x3e1f25ee	0.15541813
185	0x3e18ee09	0.14934553
186	0xbcb46a31	-0.022023292
187	0xbbe7807d	-0.0070648775
188	0xbda21f24	-0.07916096
189	0x3e297c7c	0.16551393
190	0x3e027473	0.12739734
191	0x3df04df3	0.11733618
192	0x3d8341c0	0.06409025
193	0xbe153546	-0.14571103
194	0x3e256456	0.16151556
195	0xbe4712f0	-0.19440818
196	0xbd9aaa3f	-0.07552003
197	0xbd48af87	-0.04899552
198	0x3e64b0c8	0.22333062
199	0xbdcbd082	-0.09951879
200	0xbe5a04ae	-0.21290848
201	0xbd5736bd	-0.052542437
202	0x3d93ac82	0.07210638
203	0x3e553cac	0.20823926
204	0xbde8ea36	-0.11372797
205	0x3e804251	0.25050595
206	0x3e20cfa4	0.15704209
207	0xbca69d1c	-0.020338587
208	0x3b179104	0.0023127208
209	0x3e63b5ef	0.22237371
210	0x3d45fc5c	0.04833637
211	0x3e27f07d	0.16400333
212	0xbe00769e	-0.12545249
213	0xbdd8a4c7	-0.10578304
214	0x3d9cba18	0.07652682
215	0xbda3092d	-0.079607345
216	0xbd271c8b	-0.040798705
217	0x3d8bf068	0.06832963
218	0x3e61ed72	0.22063234
219	0xbca16bd5	-0.019704739
220	0xbe59b502	-0.21260455
221	0xbe63e61e	-0.22255751
222	0x3ddeb38f	0.10874092
223	0x3d7f1e67	0.062284853
224	0xbe3bfb8b	-0.18357675
225	0x3e5fe5a5	0.21864946
226	0xbe19d01c	-0.15020794
227	0x3da4267b	0.08015152
228	0xbcc9f040	-0.024650693
229	0xbe3eb902	-0.18625262
230	0x3e21b3cb	0.15791242
231	0x3d076f4e	0.033065133
232	0x3e1b4afa	0.1516532
233	0xbdf2c11e	-0.118532404
234	0x3e51fe61	0.20507194
235	0x3e5f65a0	0.2181611
236	0x3e024369	0.12721027
237	0xbceb7f27	-0.028747154
238	0xbd251fa1	-0.040313367
239	0xbda07a49	-0.07835824
240	0x3dcdc2ad	0.10046897
241	0x3e031c38	0.12803733
242	0x3dab0e95	0.08352391
243	0xbd9c526a	-0.07632907
244	0xbe7a907f	-0.24469183
245	0x3e11419f	0.14185189
246	0xbd8d3699	-0.06895179
247	0x3e2ffe93	0.17186956
248	0xbe3ffa37	-0.18747793
249	0xbe7ab706	-0.2448388
250	0xbe5c13da	-0.21491948
251	0xbe2d34b3	-0.16914634
252	0x3c870863	0.016483491
253	0xbdc9a1e4	-0.09845331
254	0x3d93b96e	0.07213102
255	0xbd7dff56	-0.062011085

transformer_encoder.layers.0.linear1.bias f4 [32]
0	0xbe3272e7	-0.17426644
1	0x3d9e17fe	0.0771942
2	0x3e1da136	0.15393528
3	0x3dafa169	0.085757084
4	0xbe59b80f	-0.21261619
5	0x3cff0433	0.031129932
6	0x3e41b653	0.18917207
7	0xbc99c7d0	-0.018772036
8	0xbe87a4c7	-0.26492903
9	0x3d26b050	0.04069549
10	0xbdeb2a9c	-0.114827365
11	0x3e38c504	0.18043905
12	0x3c5b9c9d	0.013404039
13	0xbe2ac8a4	-0.16678101
14	0x3e098479	0.1342944
15	0xbe3c96c4	-0.18416888
16	0x3d334260	0.043764472
17	0xbd148567	-0.036260035
18	0x3df2cc2c	0.11855349
19	0x3e269ea5	0.16271456
20	0xbdfd4a09	-0.12367637
21	0x3d2d9af0	0.042384088
22	0xbcf6a6cc	-0.030108832
23	0xbe12e176	-0.14343819
24	0x3d80b3e0	0.062843084
25	0xbd3eedf4	-0.04661365
26	0xbdd60047	-0.10449272
27	0xbe7ae7e9	-0.24502529
28	0x3e62a669	0.22133793
29	0xbe61c92f	-0.22049402
30	0x3e50dafa	0.20396033
31	0xbd111cdd	-0.035427917

transformer_encoder.layers.0.linear2.weight f4 [16, 32]
0	0x3d9d4a65	0.07680205
1	0x3e04e8fa	0.12979499
2	0xbe02dd8f	-0.1277983
3	0x3deaaa5f	0.11458277
4	0x3c2cebf4	0.0105543025
5	0x3db715da	0.08939715
6	0x3dab893d	0.083757855
7	0xbc62a1ce	-0.013832523
8	0xbe59c34d	-0.21265908
9	0xbdfb807f	-0.12280368
10	0x3d898afd	0.06715963
11	0x3da747f6	0.08168022
12	0xbcdc1f85	-0.026870498
13	0x3e3c99a6	0.18417987
14	0xbd5bc5df	-0.0536555
15	0x3df35d94	0.11883083
16	0xbcd1bebe	-0.025603648
17	0x3d9baef9	0.07601733
18	0x3dcf47d7	0.10121124
19	0xbe40af6f	-0.18816923
20	0x3d0caa5d	0.03434216
21	0x3c9f8cbd	0.019476289
22	0x3ddd786b	0.108139835
23	0xbe0380d6	-0.12842116
24	0x3e0a5db3	0.13512306
25	0xbca74ebe	-0.02042329
26	0x3e1905cf	0.14943622
27	0x3cfbffb4	0.030761577
28	0x3d7a9101	0.061173443
29	0x3d4e2ea3	0.050337445
30	0x3cfcb297	0.030846877
31	0xbd1b4366	-0.037906073
32	0xbde330ba	-0.11093278
33	0x3e08157c	0.13289446
34	0xbdbc7dcd	-0.09203682
35	0x3e281480	0.1641407
36	0x3dc1ba25	0.094593324
37	0x3d9f5b5e	0.07781099
38	0x3d7909fe	0.060800545
39	0xbdd94c0d	-0.10610209
40	0x3e242dfa	0.16033164
41	0xbcb3f64e	-0.021968033
42	0x3c6c8bfe	0.014437674
43	0xbdcfe780	-0.10151577
44	0xbe305308	-0.17219174
45	0xbd9b092f	-0.07570111
46	0x3d399761	0.04531038
47	0xbd876010	-0.06610119
48	0x3e1f8455	0.15577824
49	0xbd49124b	-0.04908971
50	0x3e340d5d	0.17583223
51	0x3ded274f	0.11579763
52	0xbc01dc6d	-0.007926089
53	0x3e1ae2f6	0.15125641
54	0xbe3a4994	-0.1819213
55	0x3e185965	0.14877851
56	0xbe0c6715	-0.13711198
57	0x3e284de0	0.16435957
58	0x3d5d6d04	0.054059044
59	0x3dcb34e0	0.099221945
60	0xbdd1c21b	-0.10242101
61	0xbdcae2fe	-0.099065766
62	0x3c5da28f	0.0135275265
63	0x3e00f313	0.12592725
64	0xbdfe5de0	-0.12420249
65	0xbd9d0a1d	-0.076679446
66	0xbc6b188e	-0.014349116
67	0x3d8cb77f	0.068709366
68	0x3c2ea398	0.010659121
69	0xbc51333d	-0.012768564
70	0x3d26dcce	0.04073792
71	0xbd59590b	-0.053063434
72	0x3d81cb21	0.06337572
73	0x3dfe512e	0.124178275
74	0x3db4c7f1	0.08827198
75	0x3da15f08	0.07879454
76	0xbdf5a2c4	-0.11993936
77	0x3e08c5b3	0.13356666
78	0xbd013515	-0.031544764
79	0x3e38671f	0.18008088
80	0xbd7124c7	-0.058872964
81	0x3dfb4d04	0.12270549
82	0x3d8449a9	0.06459362
83	0x3dd1c526	0.10242681
84	0x3dcc566d	0.09977422
85	0x3bfc72b9	0.0077041057
86	0xbc572789	-0.0131319845
87	0xbe39f6a3	-0.1816049
88	0x3c8ad003	0.01694489
89	0x3d969e45	0.07354406
90	0x3ded78d9	0.115953155
91	0xbd1ecb2b	-0.038767975
92	0x3c3af538	0.011411004
93	0x3db38b13	0.08766761
94	0x3da524af	0.080636375
95	0xbd1b142a	-0.037861027
96	0xbe1c284c	-0.15249747
97	0xbc0d2618	-0.008615039
98	0x3c8920a8	0.016739205
99	0xbe374980	-0.17899132
100	0x3ddcc3a7	0.10779505
101	0x3dce37bd	0.10069225
102	0xbd05a809	-0.032630954
103	0xbd2b137c	-0.04176663
104	0x3d70dead	0.05880611
105	0xbdde8c76	-0.108666345
106	0x3de0763f	0.10960054
107	0xbe01439e	-0.1262345
108	0xbca1fff5	-0.01977537
109	0x3e157c1d	0.14598127
110	0xbda09c2e	-0.07842289
111	0xbd140ec5	-0.036146898
112	0xbd330430	-0.043705165
113	0xbd60e6e4	-0.054907694
114	0x3d0b2462	0.033970244
115	0xbe401c0b	-0.18760698
116	0xbe14d99e	-0.1453614
117	0x3c88f728	0.016719416
118	0xbe198e11	-0.149956
119	0x3cb91f27	0.022597862
120	0xbe29b1f8	-0.16571796
121	0x3d97b04d	0.074066736
122	0x3ddc77fe	0.10765074
123	0x3d4d4425	0.050113816
124	0x3e12da27	0.14341031
125	0xbdf807e3	-0.12110879
126	0xbe22411a	-0.15845147
127	0xbd8d928f	-0.069127195
128	0xbde168ab	-0.11006292
129	0xbdbd3457	-0.09238499
130	0x3e0f574f	0.1399815
131	0x3c91595d	0.017742807
132	0x3caa9b69	0.020826058
133	0x3dfdc960	0.12391925
134	0xbb83b86f	-0.004019789
135	0x3d3de6c9	0.046362672
136	0xbde0f6d3	-0.10984578
137	0xbe284596	-0.16432795
138	0x3e41e21e	0.18933913
139	0x3d114ef0	0.03547567
140	0xbdc01839	-0.0937962
141	0x3e3e4c47	0.18583785
142	0xbd84a0c6	-0.064759776
143	0x3e3b8504	0.1831246
144	0xbdf6273d	-0.12019203
145	0x3d7f0134	0.062257007
146	0xbd9d91ae	-0.07693802
147	0xbde44abb	-0.11147066
148	0xbe1111bd	-0.14166923
149	0x3d4aeebe	0.04954409
150	0xbe11f6f4	-0.14254361
151	0xbda7dcb3	-0.08196392
152	0x3b89701d	0.004194273
153	0xbd075185	-0.033036727
154	0xbd8f4f65	-0.06997565
155	0x3db7c3cd	0.08972893
156	0x3e47b0e1	0.19501068
157	0x3e583dc1	0.21117307
158	0xbd7f6f83	-0.062362205
159	0xbd101c7d	-0.03518342
160	0xbde0ef4b	-0.109831415
161	0xbe0d9067	-0.13824616
162	0x3d05caec	0.032664225
163	0xbe11a81f	-0.1422429
164	0x3d1ed50b	0.038777392
165	0xbe485a7c	-0.19565767
166	0x3d3d6e16	0.046247564
167	0x3de444ca	0.11145933
168	0xbe2bd64c	-0.16780967
169	0xbcca00de	-0.024658617
170	0x3e23b243	0.1598597
171	0x3d733f2a	0.05938641
172	0xbda0fcb9	-0.07860703
173	0xbbfeaef1	-0.0077723195
174	0xbd959f90	-0.07305825
175	0xbdb66c60	-0.0890739
176	0x3dbdc91a	0.09266873
177	0xbdca4a9a	-0.0987751
178	0xbd0290e3	-0.031876456
179	0x3e1a7eca	0.15087429
180	0x3e012122	0.12610295
181	0x3cedab8d	0.029012466
182	0xbd8252bb	-0.06363436
183	0xbd0cbfb5	-0.034362514
184	0xbc9255c8	-0.01786317
185	0x3e192da7	0.14958821
186	0xbde3ed03	-0.11129191
187	0x3dc2e2b8	0.095158994
188	0x3da5bc67	0.080925755
189	0x3d9dded9	0.077085204
190	0xbc7e1c0b	-0.015509616
191	0x3d7d4d78	0.061841458
192	0x3d0a0b04	0.03370191
193	0x3d510aa1	0.051035527
194	0xbd7f6ea9	-0.062361393
195	0xbd6ba26b	-0.05752794
196	0xbe215efe	-0.15758893
197	0xbc566fca	-0.013088176
198	0xbe3f4442	-0.18678382
199	0x3e1b3f07	0.15160762
200	0x3d1461dd	0.036226142
201	0x3d1a8774	0.037726834
202	0xbdbe33e5	-0.09287242
203	0x3d017ff6	0.031616174
204	0x3ded0c40	0.11574602
205	0xbdaa4ca8	-0.08315402
206	0xbddedc17	-0.108818226
207	0x3e1b8061	0.15185691
208	0xbd4f6542	-0.050633676
209	0xbdf3433a	-0.11878057
210	0xbdb7adff	-0.08968734
211	0xbe123bf6	-0.14280686
212	0x3de8926a	0.11356051
213	0xbd0fd630	-0.035116374
214	0xbd8d3f4a	-0.06896837
215	0x3c981d90	0.018568784
216	0x3e00baa4	0.12571198
217	0x3d741b89	0.059596572
218	0x3da51c08	0.08061987
219	0x3deb8147	0.11499267
220	0x3dbba1b4	0.09161702
221	0x3e20cd86	0.15703401
222	0x3e041b52	0.12901047
223	0xbe0520f6	-0.13000855
224	0xbdd68b19	-0.104757495
225	0x3e36a169	0.1783501
226	0x3db09ee7	0.08624058
227	0x3d4c85cb	0.049932282
228	0x3e6d9b11	0.23203684
229	0xbca46815	-0.020069161
230	0xbd283c70	-0.041073263
231	0x3e10eba5	0.14152391
232	0xbda3f33a	-0.08005376
233	0x3d6b8e52	0.057508774
234	0xbd25a4ac	-0.040440246
235	0x3afbfe92	0.0019225648
236	0x3de17d42	0.11010219
237	0xbd3aa816	-0.045570455
238	0xbdec91db	-0.11551257
239	0xbdb2e9b0	-0.087359786
240	0x3dcc1b59	0.09966154
241	0x3e131b04	0.14365774
242	0x3e109e82	0.14122966
243	0xbd5f1294	-0.054461077
244	0xbdd55b9d	-0.104178645
245	0x3d1ab641	0.037771467
246	0x3e2e679a	0.17031708
247	0x3d036b05	0.032084484
248	0xbdb89330	-0.09012449
249	0x3d8cb557	0.06870525
250	0x3d046394	0.032321528
251	0xbdd697d5	-0.104781784
252	0x3dbab69f	0.091168635
253	0xbda705c8	-0.081553996
254	0xbe08cf48	-0.13360322
255	0x3d73fae6	0.059565447

transformer_encoder.layers.0.linear2.bias f4 [16]
0	0xbe375a0c	-0.17905444
1	0xbc9e2350	-0.019303948
2	0x3e0b7dc7	0.13622199
3	0x3dcf6def	0.1012839
4	0xbd9aab96	-0.07552259
5	0xbcf37683	-0.029719597
6	0xbe1a2925	-0.15054758
7	0xbdfbaed7	-0.122892074
8	0x3d8004fa	0.06250949
9	0xbe46afa8	-0.19402945
10	0x3e23eb25	0.1600767
11	0xbd3d8b5a	-0.046275474
12	0x3dc01191	0.093783505
13	0x3cc1a5b6	0.023638587
14	0xbcd83f6a	-0.026397426
15	0xbe04485c	-0.12918228

transformer_encoder.layers.0.norm1.weight f4 [16]
0	0x3f8332ee	1.0249918
1	0x3f7455b7	0.9544329
2	0x3f85f719	1.0466033
3	0x3f81dc92	1.0145438
4	0x3f7dfe91	0.9921656
5	0x3f80a4d4	1.0050302
6	0x3f84cc89	1.0374919
7	0x3f80b0a0	1.0053902
8	0x3f7c96d2	0.98667634
9	0x3f7cd664	0.98764634
10	0x3f832de3	1.0248379
11	0x3f89b881	1.0759431
12	0x3f6cf7cc	0.9256561
13	0x3f85e2db	1.0459856
14	0x3f70cb93	0.9406063
15	0x3f808d53	1.0043129

transformer_encoder.layers.0.norm1.bias f4 [16]
0	0xbc21ce79	-0.009875887
1	0xbb12de41	-0.0022410306
2	0xbc6761c8	-0.014122434
3	0xbca78900	-0.020451069
4	0x3d006de7	0.03135481
5	0x3c5e631d	0.013573435
6	0xbbc9ae37	-0.006154801
7	0x3aea1e00	0.0017861724
8	0xb96fd4a4	-0.00022872031
9	0xbcf038bd	-0.02932393
10	0x3cdaf4b3	0.02672801
11	0x3af1bd88	0.0018443326
12	0xbc331081	-0.010929228
13	0x39ce3f97	0.0003933876
14	0x3afb2dee	0.0019163468
15	0x3c0853db	0.008320774

transformer_encoder.layers.0.norm2.weight f4 [16]
0	0x3f80f283	1.0074009
1	0x3f77dab3	0.96818084
2	0x3f855666	1.0416992
3	0x3f82c4f7	1.0216359
4	0x3f7c5b62	0.9857694
5	0x3f8429e9	1.032529
6	0x3f85756d	1.042646
7	0x3f802fd6	1.0014598
8	0x3f79fd9e	0.97652614
9	0x3f8013fa	1.0006096
10	0x3f83b9d2	1.0291083
11	0x3f8a9400	1.0826416
12	0x3f6deb1c	0.92936873
13	0x3f867fc8	1.0507746
14	0x3f755a15	0.9584058
15	0x3f828aee	1.0198648

transformer_encoder.layers.0.norm2.bias f4 [16]
0	0xbc083889	-0.00831426
1	0x3bcca1c6	0.006244871
2	0xbc9123e5	-0.017717311
3	0xbb7ffa8e	-0.0039059254
4	0x3c46beee	0.012130482
5	0x3c3875f4	0.011258591
6	0xbc00324b	-0.007824491
7	0xb9785fc1	-0.00023686794
8	0xbb75eac7	-0.0037523971
9	0xbcad1cc0	-0.021131873
10	0x3c8781e5	0.01654143
11	0x3bf27c5b	0.0074000782
12	0xbc3d435b	-0.011551703
13	0x3b1b2886	0.0023675277
14	0x3c648a6e	0.01394902
15	0x3baf953f	0.0053583677

transformer_encoder.layers.1.self_attn.in_proj_weight f4 [48, 16]
0	0xbd9f5fbd	-0.077819325
1	0xbea462e2	-0.32106692
2	0x3d85dce1	0.0653627
3	0xbda2e900	-0.079545975
4	0xbe0ab5ca	-0.1354591
5	0x3de3a692	0.11115755
6	0x3e228f12	0.1587489
7	0xbdf7ae64	-0.12093809
8	0x3d2b715c	0.041856155
9	0x3e4d9f21	0.20080234
10	0x3dd653d9	0.104652114
11	0x3e78c8e9	0.24295391
12	0x3e78bb31	0.24290158
13	0x3df2404e	0.118286714
14	0xbe58439d	-0.21119542
15	0x3e59ff5d	0.2128882
16	0x3e778287	0.24170886
17	0xbeb51bf9	-0.35372904
18	0x3e543776	0.20724282
19	0x3dbab63e	0.09116791
20	0xbda4ab1d	-0.0804045
21	0xbdaa228b	-0.0830737
22	0x3e85f4a7	0.26163217
23	0xbe4b2652	-0.19838837
24	0x3e11a121	0.14221622
25	0x3d98a9bb	0.074542485
26	0x3e22a9d7	0.15885101
27	0xbe0ed236	-0.13947377
28	0x3d0f0f9a	0.03492699
29	0xbdf50379	-0.11963553
30	0x3d3cedaa	0.04612509
31	0x3e728a81	0.23685648
32	0xbda85aa1	-0.08220411
33	0xbe82ee26	-0.25572318
34	0x3ec037ad	0.37542477
35	0x3e89ff3d	0.26952544
36	0xbeb28b0f	-0.34871718
37	0xbc8b917f	-0.017037151
38	0x3e572d57	0.2101339
39	0xbde1b547	-0.11020904
40	0xbe8f1cae	-0.27951568
41	0x3e892ac4	0.2679044
42	0x3dad7899	0.08470268
43	0xbd764393	-0.060123038
44	0x3d3a69bb	0.04551099
45	0x3d4f33a3	0.050586354
46	0xbe5c341c	-0.21504253
47	0x3ccb9db9	0.024855481
48	0x3db398e1	0.08769394
49	0xbe718465	-0.23585661
50	0x3e5a9e51	0.21349455
51	0x3e0c047f	0.1367359
52	0x3e859cc8	0.26096177
53	0x3e7595aa	0.23982874
54	0xbd6f24c7	-0.058384683
55	0x3e9be7a9	0.3045018
56	0xbd8eb2fd	-0.06967733
57	0x3d9c1694	0.07621494
58	0xbdd6a94d	-0.1048151
59	0xbc955094	-0.0182269
60	0x3e80f15b	0.2518414
61	0xbd92126b	-0.07132419
62	0xbddc547d	-0.10758302
63	0x3e31578d	0.17318554
64	0xbe99b148	-0.30018067
65	0x3d2f335e	0.042773597
66	0xbe321b1a	-0.17393151
67	0x3e3bd323	0.18342261
68	0xbe484aca	-0.1955978
69	0xbe10766c	-0.14107674
70	0x3e76528a	0.24054924
71	0xbe7162b8	-0.23572814
72	0xbd52e270	-0.05148548
73	0x3db04c60	0.086083174
74	0xbe5fad4f	-0.21843456
75	0x3d8abb89	0.06774051
76	0xbe20ba8a	-0.15696159
77	0x3df3290d	0.11873064
78	0x3e893248	0.26796174
79	0xbe8cf6bc	-0.27531993
80	0xbddef96f	-0.108874194
81	0x3ddef897	0.108872585
82	0x3e1425b6	0.1446751
83	0x3eb68b8d	0.35653344
84	0x3e213f82	0.15746883
85	0x3e246c40	0.16056919
86	0x3caf86e7	0.021426631
87	0xbd9e08ba	-0.07716508
88	0x3cfeab0d	0.031087423
89	0xbeab72a6	-0.33485907
90	0x3e98c59b	0.2983826
91	0xbe8a7510	-0.27042437
92	0x3e040d27	0.12895642
93	0x3e52460e	0.20534536
94	0xbe89e55f	-0.2693281
95	0x3db62148	0.08893067
96	0xbe2ed20b	-0.17072313
97	0xbe58b34e	-0.2116215
98	0x3e92b6a1	0.2865496
99	0xbd4cf972	-0.050042577
100	0xbe805f05	-0.25072494
101	0x3e444959	0.19168605
102	0xbe0d0340	-0.13770771
103	0x3e31388b	0.17306726
104	0x3df0cb83	0.11757567
105	0xbedb3db5	-0.42820516
106	0x3e16b3fe	0.14717099
107	0x3dc10573	0.094248675
108	0x3dd106c8	0.102063715
109	0x3d3b6834	0.045753673
110	0x3ea5d51d	0.32389155
111	0xbe921612	-0.28532463
112	0x3e275513	0.16341047
113	0xbe0628aa	-0.1310145
114	0xbe3cdec2	-0.1844435
115	0xbe90887f	-0.28229138
116	0x3e52a3a2	0.20570233
117	0xbe500c70	-0.20317245
118	0xbe397014	-0.1810916
119	0x3df8bc70	0.121453166
120	0xbdcdb12b	-0.10043558
121	0x3e996c80	0.2996559
122	0xbdb65514	-0.08902946
123	0x3e111006	0.14166269
124	0xbe3bf3ac	-0.18354672
125	0x3c7c2c16	0.01539137
126	0xbd4567f7	-0.04819485
127	0xbe1aa3a7	-0.15101491
128	0x3e71fa9d	0.23630758
129	0x3d255176	0.04036089
130	0xbd06a4a0	-0.032871842
131	0x3e8cbfbe	0.27490038
132	0xbe826e32	-0.25474697
133	0x3de63b9b	0.112418376
134	0x3d404cac	0.04694812
135	0x3e5b6c83	0.21428113
136	0xbe9a3e6f	-0.30125758
137	0x3e525b21	0.20542575
138	0xbe162b4c	-0.14664954
139	0xbd99eec1	-0.07516242
140	0x3dff0b2c	0.12453303
141	0xbe5b642a	-0.21424928
142	0x3e92f005	0.28698745
143	0x3e8582eb	0.26076445
144	0xbe9ff172	-0.31238896
145	0xbe5356b7	-0.20638548
146	0x3d3cb174	0.04606767
147	0x3ddddbd9	0.10832948
148	0xbe042ecd	-0.12908478
149	0x3dcfbee8	0.10143834
150	0x3e15652c	0.14589375
151	0x3e6b2867	0.22964631
152	0xbb9512b1	-0.0045493473
153	0x3e64f8b0	0.22360492
154	0xbe31f233	-0.17377548
155	0xbe024ae8	-0.12723887
156	0x3e35876e	0.17727444
157	0x3dec636c	0.11542401
158	0xbd919433	-0.07108345
159	0x3e186d0e	0.14885351
160	0xbdf52cdd	-0.119714476
161	0xbda65d9c	-0.08123323
162	0xbe8161d9	-0.25269964
163	0xbe17c293	-0.14820318
164	0x3de50fa9	0.111846276
165	0x3deea980	0.11653423
166	0x3dfb6b30	0.12276304
167	0x3ea9142c	0.33023202
168	0xbe5fe0fe	-0.21863171
169	0xbe28b5bf	-0.1647558
170	0xbe8c01f9	-0.27345255
171	0x3e5ffe66	0.21874389
172	0xbe63ef8d	-0.2225935
173	0x3dfa3ad9	0.122182555
174	0x3e549b1a	0.20762292
175	0xbc9c7be4	-0.019102044
176	0xbd54bab9	-0.051935885
177	0xbdaa15c8	-0.08304936
178	0xbe4aa421	-0.19789173
179	0xbe9c51e5	-0.3053123
180	0x3d04077f	0.03223371
181	0xbd8b8a0d	-0.068134405
182	0xbe583010	-0.21112084
183	0x3e91d548	0.28483033
184	0x3d76abf6	0.06022259
185	0xbde54e23	-0.11196544
186	0xbe8606a9	-0.26176956
187	0x3a552bef	0.0008131852
188	0xbdf78f50	-0.120878816
189	0x3df937b7	0.1216883
190	0x3ea1359d	0.31486216
191	0x3e4fd71c	0.20296901
192	0xbe87d8bf	-0.26532552
193	0x3e8cfc5e	0.2753629
194	0xbe8689aa	-0.26276904
195	0x3d24e22c	0.040254757
196	0xbe71c5f6	-0.23610672
197	0x3d66b0de	0.056321017
198	0x3e50ae3a	0.20378962
199	0x3e822d7a	0.2542532
200	0xbe98114a	-0.2970069
201	0x3e964955	0.29352823
202	0x3e8c7579	0.27433375
203	0x3e6591b3	0.22418861
204	0xbe31e24e	-0.17371485
205	0xbe90fbf5	-0.28317228
206	0x3e1641b9	0.14673509
207	0xbe573840	-0.21017551
208	0xbe064d43	-0.1311541
209	0xbe297a42	-0.16550544
210	0xbe59ce67	-0.21270142
211	0xbe5d4a11	-0.21610285
212	0xbdf5cd60	-0.12002063
213	0x3dad0843	0.084488414
214	0xbdc6a857	-0.09700077
215	0x3df74c89	0.12075145
216	0x3d7f616a	0.06234876
217	0xbe8205cd	-0.2539505
218	0xbe37f4c3	-0.17964463
219	0x3e40a0c3	0.18811326
220	0x3cb7e840	0.022449613
221	0xbe67f832	-0.22653273
222	0x3e9f180e	0.3107304
223	0x3e8faa4e	0.2805962
224	0xbc893d54	-0.016752876
225	0x3ce802ef	0.028321711
226	0xbea5147c	-0.3224219
227	0xbe6aede2	-0.22942308
228	0x3e82b77e	0.25530618
229	0x3e12d157	0.1433767
230	0xbe85c821	-0.2612925
231	0x3e394a17	0.1809467
232	0xbcc7acd1	-0.024374397
233	0xbea1e0d3	-0.3161684
234	0xbe94f141	-0.29090312
235	0x3bb2e545	0.00545946
236	0xbe46df78	-0.19421184
237	0x3e934a42	0.28767592
238	0xbd010dc3	-0.031507265
239	0xbe3b33eb	-0.18281524
240	0x3d94b15e	0.072603926
241	0x3e4404bf	0.19142435
242	0xbe8ed6cf	-0.2789826
243	0x3e48639e	0.19569251
244	0xbd59d3d0	-0.053180516
245	0x3dd92769	0.1060322
246	0xbe6fc320	-0.23414278
247	0xbe44e45c	-0.19227737
248	0x3de18f09	0.1101361
249	0x3da24a30	0.079243064
250	0xbdb7a185	-0.08966354
251	0x3dda28c9	0.106523104
252	0x3d95730d	0.07297335
253	0x3e97ce9e	0.29649824
254	0x3d5be8b3	0.053688716
255	0xbdba0ea0	-0.09084821
